…
[40]-[parameters] dataset_paths--{'Flickr': './DataSet/Flickr2K', 'DIV2K': './DataSet/DIV2K', 'DF2K': {'Flickr': './DataSet/DIV2K', 'DIV2K': './DataSet/DIV2K'}}
[41]-[parameters] test_dataset_paths--{'urban100': './benchmark', 'b100': './benchmark', 'set5': './benchmark', 'set14': './benchmark', 'manga109': './benchmark'}
[42]-[2023-06-24 16:03:10]-[info] Model structure:
[43]-[model] HLFSR(
  (residual_layer): Sequential(
    (0): OSAG(
      (residual_layer): Sequential(
        (0): OSA_Block(
          (layer): Sequential(
            (0): MBConvResidual(
              (fn): Sequential(
                (0): Conv2d(64, 64, kernel_size=(1, 1), stride=(1, 1))
                (1): GELU(approximate='none')
                (2): Conv2d(64, 64, kernel_size=(3, 3), stride=(1, 1), padding=(1, 1), groups=64)
                (3): GELU(approximate='none')
                (4): SqueezeExcitation(
                  (gate): Sequential(
                    (0): Reduce('b c h w -> b c', 'mean')
                    (1): Linear(in_features=64, out_features=16, bias=False)
                    (2): SiLU()
                    (3): Linear(in_features=16, out_features=64, bias=False)
                    (4): Sigmoid()
                    (5): Rearrange('b c -> b c 1 1')
                  )
                )
                (5): Conv2d(64, 64, kernel_size=(1, 1), stride=(1, 1))
              )
              (dropsample): Dropsample()
            )
            (1): Rearrange('b d (x w1) (y w2) -> b x y w1 w2 d', w1=8, w2=8)
            (2): PreNormResidual(
              (norm): LayerNorm((64,), eps=1e-05, elementwise_affine=True)
              (fn): Attention(
                (to_qkv): Linear(in_features=64, out_features=192, bias=False)
                (attend): Sequential(
                  (0): Softmax(dim=-1)
                  (1): Dropout(p=0.0, inplace=False)
                )
                (to_out): Sequential(
                  (0): Linear(in_features=64, out_features=64, bias=False)
                  (1): Dropout(p=0.0, inplace=False)
                )
                (rel_pos_bias): Embedding(225, 4)
              )
            )
            (3): Rearrange('b x y w1 w2 d -> b d (x w1) (y w2)')
            (4): Conv_PreNormResidual(
              (norm): LayerNorm2d()
              (fn): Gated_Conv_FeedForward(
                (project_in): Conv2d(64, 128, kernel_size=(1, 1), stride=(1, 1), bias=False)
                (dwconv): Conv2d(128, 128, kernel_size=(3, 3), stride=(1, 1), padding=(1, 1), groups=128, bias=False)
                (project_out): Conv2d(64, 64, kernel_size=(1, 1), stride=(1, 1), bias=False)
              )
            )
            (5): Conv_PreNormResidual(
              (norm): LayerNorm2d()
              (fn): Channel_Attention(
                (qkv): Conv2d(64, 192, kernel_size=(1, 1), stride=(1, 1), bias=False)
                (qkv_dwconv): Conv2d(192, 192, kernel_size=(3, 3), stride=(1, 1), padding=(1, 1), groups=192, bias=False)
                (project_out): Conv2d(64, 64, kernel_size=(1, 1), stride=(1, 1), bias=False)
              )
            )
            (6): Conv_PreNormResidual(
              (norm): LayerNorm2d()
              (fn): Gated_Conv_FeedForward(
                (project_in): Conv2d(64, 128, kernel_size=(1, 1), stride=(1, 1), bias=False)
                (dwconv): Conv2d(128, 128, kernel_size=(3, 3), stride=(1, 1), padding=(1, 1), groups=128, bias=False)
                (project_out): Conv2d(64, 64, kernel_size=(1, 1), stride=(1, 1), bias=False)
              )
            )
            (7): Rearrange('b d (w1 x) (w2 y) -> b x y w1 w2 d', w1=8, w2=8)
            (8): PreNormResidual(
              (norm): LayerNorm((64,), eps=1e-05, elementwise_affine=True)
              (fn): Attention(
                (to_qkv): Linear(in_features=64, out_features=192, bias=False)
                (attend): Sequential(
                  (0): Softmax(dim=-1)
                  (1): Dropout(p=0.0, inplace=False)
                )
                (to_out): Sequential(
                  (0): Linear(in_features=64, out_features=64, bias=False)
                  (1): Dropout(p=0.0, inplace=False)
                )
                (rel_pos_bias): Embedding(225, 4)
              )
            )
            (9): Rearrange('b x y w1 w2 d -> b d (w1 x) (w2 y)')
            (10): Conv_PreNormResidual(
              (norm): LayerNorm2d()
              (fn): Gated_Conv_FeedForward(
                (project_in): Conv2d(64, 128, kernel_size=(1, 1), stride=(1, 1), bias=False)
                (dwconv): Conv2d(128, 128, kernel_size=(3, 3), stride=(1, 1), padding=(1, 1), groups=128, bias=False)
                (project_out): Conv2d(64, 64, kernel_size=(1, 1), stride=(1, 1), bias=False)
              )
            )
            (11): Conv_PreNormResidual(
              (norm): LayerNorm2d()
              (fn): Channel_Attention_grid(
                (qkv): Conv2d(64, 192, kernel_size=(1, 1), stride=(1, 1), bias=False)
                (qkv_dwconv): Conv2d(192, 192, kernel_size=(3, 3), stride=(1, 1), padding=(1, 1), groups=192, bias=False)
                (project_out): Conv2d(64, 64, kernel_size=(1, 1), stride=(1, 1), bias=False)
              )
            )
            (12): Conv_PreNormResidual(
              (norm): LayerNorm2d()
              (fn): Gated_Conv_FeedForward(
                (project_in): Conv2d(64, 128, kernel_size=(1, 1), stride=(1, 1), bias=False)
                (dwconv): Conv2d(128, 128, kernel_size=(3, 3), stride=(1, 1), padding=(1, 1), groups=128, bias=False)
                (project_out): Conv2d(64, 64, kernel_size=(1, 1), stride=(1, 1), bias=False)
              )
            )
          )
        )
        (1): Conv2d(64, 64, kernel_size=(1, 1), stride=(1, 1))
      )
      (esa): ESA(
        (conv1): Conv2d(64, 16, kernel_size=(1, 1), stride=(1, 1))
        (conv_f): Conv2d(16, 16, kernel_size=(1, 1), stride=(1, 1))
        (conv2): Conv2d(16, 16, kernel_size=(3, 3), stride=(2, 2))
        (conv3): Conv2d(16, 16, kernel_size=(3, 3), stride=(1, 1), padding=(1, 1))
        (conv4): Conv2d(16, 64, kernel_size=(1, 1), stride=(1, 1))
        (sigmoid): Sigmoid()
        (relu): ReLU(inplace=True)
      )
    )
    (1): OSAG(
      (residual_layer): Sequential(
        (0): OSA_Block(
          (layer): Sequential(
            (0): MBConvResidual(
              (fn): Sequential(
                (0): Conv2d(64, 64, kernel_size=(1, 1), stride=(1, 1))
                (1): GELU(approximate='none')
                (2): Conv2d(64, 64, kernel_size=(3, 3), stride=(1, 1), padding=(1, 1), groups=64)
                (3): GELU(approximate='none')
                (4): SqueezeExcitation(
                  (gate): Sequential(
                    (0): Reduce('b c h w -> b c', 'mean')
                    (1): Linear(in_features=64, out_features=16, bias=False)
                    (2): SiLU()
                    (3): Linear(in_features=16, out_features=64, bias=False)
                    (4): Sigmoid()
                    (5): Rearrange('b c -> b c 1 1')
                  )
                )
                (5): Conv2d(64, 64, kernel_size=(1, 1), stride=(1, 1))
              )
              (dropsample): Dropsample()
            )
            (1): Rearrange('b d (x w1) (y w2) -> b x y w1 w2 d', w1=8, w2=8)
            (2): PreNormResidual(
              (norm): LayerNorm((64,), eps=1e-05, elementwise_affine=True)
              (fn): Attention(
                (to_qkv): Linear(in_features=64, out_features=192, bias=False)
                (attend): Sequential(
                  (0): Softmax(dim=-1)
                  (1): Dropout(p=0.0, inplace=False)
                )
                (to_out): Sequential(
                  (0): Linear(in_features=64, out_features=64, bias=False)
                  (1): Dropout(p=0.0, inplace=False)
                )
                (rel_pos_bias): Embedding(225, 4)
              )
            )
            (3): Rearrange('b x y w1 w2 d -> b d (x w1) (y w2)')
            (4): Conv_PreNormResidual(
              (norm): LayerNorm2d()
              (fn): Gated_Conv_FeedForward(
                (project_in): Conv2d(64, 128, kernel_size=(1, 1), stride=(1, 1), bias=False)
                (dwconv): Conv2d(128, 128, kernel_size=(3, 3), stride=(1, 1), padding=(1, 1), groups=128, bias=False)
                (project_out): Conv2d(64, 64, kernel_size=(1, 1), stride=(1, 1), bias=False)
              )
            )
            (5): Conv_PreNormResidual(
              (norm): LayerNorm2d()
              (fn): Channel_Attention(
                (qkv): Conv2d(64, 192, kernel_size=(1, 1), stride=(1, 1), bias=False)
                (qkv_dwconv): Conv2d(192, 192, kernel_size=(3, 3), stride=(1, 1), padding=(1, 1), groups=192, bias=False)
                (project_out): Conv2d(64, 64, kernel_size=(1, 1), stride=(1, 1), bias=False)
              )
            )
            (6): Conv_PreNormResidual(
              (norm): LayerNorm2d()
              (fn): Gated_Conv_FeedForward(
                (project_in): Conv2d(64, 128, kernel_size=(1, 1), stride=(1, 1), bias=False)
                (dwconv): Conv2d(128, 128, kernel_size=(3, 3), stride=(1, 1), padding=(1, 1), groups=128, bias=False)
                (project_out): Conv2d(64, 64, kernel_size=(1, 1), stride=(1, 1), bias=False)
              )
            )
            (7): Rearrange('b d (w1 x) (w2 y) -> b x y w1 w2 d', w1=8, w2=8)
            (8): PreNormResidual(
              (norm): LayerNorm((64,), eps=1e-05, elementwise_affine=True)
              (fn): Attention(
                (to_qkv): Linear(in_features=64, out_features=192, bias=False)
                (attend): Sequential(
                  (0): Softmax(dim=-1)
                  (1): Dropout(p=0.0, inplace=False)
                )
                (to_out): Sequential(
                  (0): Linear(in_features=64, out_features=64, bias=False)
                  (1): Dropout(p=0.0, inplace=False)
                )
                (rel_pos_bias): Embedding(225, 4)
              )
            )
            (9): Rearrange('b x y w1 w2 d -> b d (w1 x) (w2 y)')
            (10): Conv_PreNormResidual(
              (norm): LayerNorm2d()
              (fn): Gated_Conv_FeedForward(
                (project_in): Conv2d(64, 128, kernel_size=(1, 1), stride=(1, 1), bias=False)
                (dwconv): Conv2d(128, 128, kernel_size=(3, 3), stride=(1, 1), padding=(1, 1), groups=128, bias=False)
                (project_out): Conv2d(64, 64, kernel_size=(1, 1), stride=(1, 1), bias=False)
              )
            )
            (11): Conv_PreNormResidual(
              (norm): LayerNorm2d()
              (fn): Channel_Attention_grid(
                (qkv): Conv2d(64, 192, kernel_size=(1, 1), stride=(1, 1), bias=False)
                (qkv_dwconv): Conv2d(192, 192, kernel_size=(3, 3), stride=(1, 1), padding=(1, 1), groups=192, bias=False)
                (project_out): Conv2d(64, 64, kernel_size=(1, 1), stride=(1, 1), bias=False)
              )
            )
            (12): Conv_PreNormResidual(
              (norm): LayerNorm2d()
              (fn): Gated_Conv_FeedForward(
                (project_in): Conv2d(64, 128, kernel_size=(1, 1), stride=(1, 1), bias=False)
                (dwconv): Conv2d(128, 128, kernel_size=(3, 3), stride=(1, 1), padding=(1, 1), groups=128, bias=False)
                (project_out): Conv2d(64, 64, kernel_size=(1, 1), stride=(1, 1), bias=False)
              )
            )
          )
        )
        (1): Conv2d(64, 64, kernel_size=(1, 1), stride=(1, 1))
      )
      (esa): ESA(
        (conv1): Conv2d(64, 16, kernel_size=(1, 1), stride=(1, 1))
        (conv_f): Conv2d(16, 16, kernel_size=(1, 1), stride=(1, 1))
        (conv2): Conv2d(16, 16, kernel_size=(3, 3), stride=(2, 2))
        (conv3): Conv2d(16, 16, kernel_size=(3, 3), stride=(1, 1), padding=(1, 1))
        (conv4): Conv2d(16, 64, kernel_size=(1, 1), stride=(1, 1))
        (sigmoid): Sigmoid()
        (relu): ReLU(inplace=True)
      )
    )
    (2): OSAG(
      (residual_layer): Sequential(
        (0): OSA_Block(
          (layer): Sequential(
            (0): MBConvResidual(
              (fn): Sequential(
                (0): Conv2d(64, 64, kernel_size=(1, 1), stride=(1, 1))
                (1): GELU(approximate='none')
                (2): Conv2d(64, 64, kernel_size=(3, 3), stride=(1, 1), padding=(1, 1), groups=64)
                (3): GELU(approximate='none')
                (4): SqueezeExcitation(
                  (gate): Sequential(
                    (0): Reduce('b c h w -> b c', 'mean')
                    (1): Linear(in_features=64, out_features=16, bias=False)
                    (2): SiLU()
                    (3): Linear(in_features=16, out_features=64, bias=False)
                    (4): Sigmoid()
                    (5): Rearrange('b c -> b c 1 1')
                  )
                )
                (5): Conv2d(64, 64, kernel_size=(1, 1), stride=(1, 1))
              )
              (dropsample): Dropsample()
            )
            (1): Rearrange('b d (x w1) (y w2) -> b x y w1 w2 d', w1=8, w2=8)
            (2): PreNormResidual(
              (norm): LayerNorm((64,), eps=1e-05, elementwise_affine=True)
              (fn): Attention(
                (to_qkv): Linear(in_features=64, out_features=192, bias=False)
                (attend): Sequential(
                  (0): Softmax(dim=-1)
                  (1): Dropout(p=0.0, inplace=False)
                )
                (to_out): Sequential(
                  (0): Linear(in_features=64, out_features=64, bias=False)
                  (1): Dropout(p=0.0, inplace=False)
                )
                (rel_pos_bias): Embedding(225, 4)
              )
            )
            (3): Rearrange('b x y w1 w2 d -> b d (x w1) (y w2)')
            (4): Conv_PreNormResidual(
              (norm): LayerNorm2d()
              (fn): Gated_Conv_FeedForward(
                (project_in): Conv2d(64, 128, kernel_size=(1, 1), stride=(1, 1), bias=False)
                (dwconv): Conv2d(128, 128, kernel_size=(3, 3), stride=(1, 1), padding=(1, 1), groups=128, bias=False)
                (project_out): Conv2d(64, 64, kernel_size=(1, 1), stride=(1, 1), bias=False)
              )
            )
            (5): Conv_PreNormResidual(
              (norm): LayerNorm2d()
              (fn): Channel_Attention(
                (qkv): Conv2d(64, 192, kernel_size=(1, 1), stride=(1, 1), bias=False)
                (qkv_dwconv): Conv2d(192, 192, kernel_size=(3, 3), stride=(1, 1), padding=(1, 1), groups=192, bias=False)
                (project_out): Conv2d(64, 64, kernel_size=(1, 1), stride=(1, 1), bias=False)
              )
            )
            (6): Conv_PreNormResidual(
              (norm): LayerNorm2d()
              (fn): Gated_Conv_FeedForward(
                (project_in): Conv2d(64, 128, kernel_size=(1, 1), stride=(1, 1), bias=False)
                (dwconv): Conv2d(128, 128, kernel_size=(3, 3), stride=(1, 1), padding=(1, 1), groups=128, bias=False)
                (project_out): Conv2d(64, 64, kernel_size=(1, 1), stride=(1, 1), bias=False)
              )
            )
            (7): Rearrange('b d (w1 x) (w2 y) -> b x y w1 w2 d', w1=8, w2=8)
            (8): PreNormResidual(
              (norm): LayerNorm((64,), eps=1e-05, elementwise_affine=True)
              (fn): Attention(
                (to_qkv): Linear(in_features=64, out_features=192, bias=False)
                (attend): Sequential(
                  (0): Softmax(dim=-1)
                  (1): Dropout(p=0.0, inplace=False)
                )
                (to_out): Sequential(
                  (0): Linear(in_features=64, out_features=64, bias=False)
                  (1): Dropout(p=0.0, inplace=False)
                )
                (rel_pos_bias): Embedding(225, 4)
              )
            )
            (9): Rearrange('b x y w1 w2 d -> b d (w1 x) (w2 y)')
            (10): Conv_PreNormResidual(
              (norm): LayerNorm2d()
              (fn): Gated_Conv_FeedForward(
                (project_in): Conv2d(64, 128, kernel_size=(1, 1), stride=(1, 1), bias=False)
                (dwconv): Conv2d(128, 128, kernel_size=(3, 3), stride=(1, 1), padding=(1, 1), groups=128, bias=False)
                (project_out): Conv2d(64, 64, kernel_size=(1, 1), stride=(1, 1), bias=False)
              )
            )
            (11): Conv_PreNormResidual(
              (norm): LayerNorm2d()
              (fn): Channel_Attention_grid(
                (qkv): Conv2d(64, 192, kernel_size=(1, 1), stride=(1, 1), bias=False)
                (qkv_dwconv): Conv2d(192, 192, kernel_size=(3, 3), stride=(1, 1), padding=(1, 1), groups=192, bias=False)
                (project_out): Conv2d(64, 64, kernel_size=(1, 1), stride=(1, 1), bias=False)
              )
            )
            (12): Conv_PreNormResidual(
              (norm): LayerNorm2d()
              (fn): Gated_Conv_FeedForward(
                (project_in): Conv2d(64, 128, kernel_size=(1, 1), stride=(1, 1), bias=False)
                (dwconv): Conv2d(128, 128, kernel_size=(3, 3), stride=(1, 1), padding=(1, 1), groups=128, bias=False)
                (project_out): Conv2d(64, 64, kernel_size=(1, 1), stride=(1, 1), bias=False)
              )
            )
          )
        )
        (1): Conv2d(64, 64, kernel_size=(1, 1), stride=(1, 1))
      )
      (esa): ESA(
        (conv1): Conv2d(64, 16, kernel_size=(1, 1), stride=(1, 1))
        (conv_f): Conv2d(16, 16, kernel_size=(1, 1), stride=(1, 1))
        (conv2): Conv2d(16, 16, kernel_size=(3, 3), stride=(2, 2))
        (conv3): Conv2d(16, 16, kernel_size=(3, 3), stride=(1, 1), padding=(1, 1))
        (conv4): Conv2d(16, 64, kernel_size=(1, 1), stride=(1, 1))
        (sigmoid): Sigmoid()
        (relu): ReLU(inplace=True)
      )
    )
    (3): OSAG(
      (residual_layer): Sequential(
        (0): OSA_Block(
          (layer): Sequential(
            (0): MBConvResidual(
              (fn): Sequential(
                (0): Conv2d(64, 64, kernel_size=(1, 1), stride=(1, 1))
                (1): GELU(approximate='none')
                (2): Conv2d(64, 64, kernel_size=(3, 3), stride=(1, 1), padding=(1, 1), groups=64)
                (3): GELU(approximate='none')
                (4): SqueezeExcitation(
                  (gate): Sequential(
                    (0): Reduce('b c h w -> b c', 'mean')
                    (1): Linear(in_features=64, out_features=16, bias=False)
                    (2): SiLU()
                    (3): Linear(in_features=16, out_features=64, bias=False)
                    (4): Sigmoid()
                    (5): Rearrange('b c -> b c 1 1')
                  )
                )
                (5): Conv2d(64, 64, kernel_size=(1, 1), stride=(1, 1))
              )
              (dropsample): Dropsample()
            )
            (1): Rearrange('b d (x w1) (y w2) -> b x y w1 w2 d', w1=8, w2=8)
            (2): PreNormResidual(
              (norm): LayerNorm((64,), eps=1e-05, elementwise_affine=True)
              (fn): Attention(
                (to_qkv): Linear(in_features=64, out_features=192, bias=False)
                (attend): Sequential(
                  (0): Softmax(dim=-1)
                  (1): Dropout(p=0.0, inplace=False)
                )
                (to_out): Sequential(
                  (0): Linear(in_features=64, out_features=64, bias=False)
                  (1): Dropout(p=0.0, inplace=False)
                )
                (rel_pos_bias): Embedding(225, 4)
              )
            )
            (3): Rearrange('b x y w1 w2 d -> b d (x w1) (y w2)')
            (4): Conv_PreNormResidual(
              (norm): LayerNorm2d()
              (fn): Gated_Conv_FeedForward(
                (project_in): Conv2d(64, 128, kernel_size=(1, 1), stride=(1, 1), bias=False)
                (dwconv): Conv2d(128, 128, kernel_size=(3, 3), stride=(1, 1), padding=(1, 1), groups=128, bias=False)
                (project_out): Conv2d(64, 64, kernel_size=(1, 1), stride=(1, 1), bias=False)
              )
            )
            (5): Conv_PreNormResidual(
              (norm): LayerNorm2d()
              (fn): Channel_Attention(
                (qkv): Conv2d(64, 192, kernel_size=(1, 1), stride=(1, 1), bias=False)
                (qkv_dwconv): Conv2d(192, 192, kernel_size=(3, 3), stride=(1, 1), padding=(1, 1), groups=192, bias=False)
                (project_out): Conv2d(64, 64, kernel_size=(1, 1), stride=(1, 1), bias=False)
              )
            )
            (6): Conv_PreNormResidual(
              (norm): LayerNorm2d()
              (fn): Gated_Conv_FeedForward(
                (project_in): Conv2d(64, 128, kernel_size=(1, 1), stride=(1, 1), bias=False)
                (dwconv): Conv2d(128, 128, kernel_size=(3, 3), stride=(1, 1), padding=(1, 1), groups=128, bias=False)
                (project_out): Conv2d(64, 64, kernel_size=(1, 1), stride=(1, 1), bias=False)
              )
            )
            (7): Rearrange('b d (w1 x) (w2 y) -> b x y w1 w2 d', w1=8, w2=8)
            (8): PreNormResidual(
              (norm): LayerNorm((64,), eps=1e-05, elementwise_affine=True)
              (fn): Attention(
                (to_qkv): Linear(in_features=64, out_features=192, bias=False)
                (attend): Sequential(
                  (0): Softmax(dim=-1)
                  (1): Dropout(p=0.0, inplace=False)
                )
                (to_out): Sequential(
                  (0): Linear(in_features=64, out_features=64, bias=False)
                  (1): Dropout(p=0.0, inplace=False)
                )
                (rel_pos_bias): Embedding(225, 4)
              )
            )
            (9): Rearrange('b x y w1 w2 d -> b d (w1 x) (w2 y)')
            (10): Conv_PreNormResidual(
              (norm): LayerNorm2d()
              (fn): Gated_Conv_FeedForward(
                (project_in): Conv2d(64, 128, kernel_size=(1, 1), stride=(1, 1), bias=False)
                (dwconv): Conv2d(128, 128, kernel_size=(3, 3), stride=(1, 1), padding=(1, 1), groups=128, bias=False)
                (project_out): Conv2d(64, 64, kernel_size=(1, 1), stride=(1, 1), bias=False)
              )
            )
            (11): Conv_PreNormResidual(
              (norm): LayerNorm2d()
              (fn): Channel_Attention_grid(
                (qkv): Conv2d(64, 192, kernel_size=(1, 1), stride=(1, 1), bias=False)
                (qkv_dwconv): Conv2d(192, 192, kernel_size=(3, 3), stride=(1, 1), padding=(1, 1), groups=192, bias=False)
                (project_out): Conv2d(64, 64, kernel_size=(1, 1), stride=(1, 1), bias=False)
              )
            )
            (12): Conv_PreNormResidual(
              (norm): LayerNorm2d()
              (fn): Gated_Conv_FeedForward(
                (project_in): Conv2d(64, 128, kernel_size=(1, 1), stride=(1, 1), bias=False)
                (dwconv): Conv2d(128, 128, kernel_size=(3, 3), stride=(1, 1), padding=(1, 1), groups=128, bias=False)
                (project_out): Conv2d(64, 64, kernel_size=(1, 1), stride=(1, 1), bias=False)
              )
            )
          )
        )
        (1): Conv2d(64, 64, kernel_size=(1, 1), stride=(1, 1))
      )
      (esa): ESA(
        (conv1): Conv2d(64, 16, kernel_size=(1, 1), stride=(1, 1))
        (conv_f): Conv2d(16, 16, kernel_size=(1, 1), stride=(1, 1))
        (conv2): Conv2d(16, 16, kernel_size=(3, 3), stride=(2, 2))
        (conv3): Conv2d(16, 16, kernel_size=(3, 3), stride=(1, 1), padding=(1, 1))
        (conv4): Conv2d(16, 64, kernel_size=(1, 1), stride=(1, 1))
        (sigmoid): Sigmoid()
        (relu): ReLU(inplace=True)
      )
    )
    (4): OSAG(
      (residual_layer): Sequential(
        (0): OSA_Block(
          (layer): Sequential(
            (0): MBConvResidual(
              (fn): Sequential(
                (0): Conv2d(64, 64, kernel_size=(1, 1), stride=(1, 1))
                (1): GELU(approximate='none')
                (2): Conv2d(64, 64, kernel_size=(3, 3), stride=(1, 1), padding=(1, 1), groups=64)
                (3): GELU(approximate='none')
                (4): SqueezeExcitation(
                  (gate): Sequential(
                    (0): Reduce('b c h w -> b c', 'mean')
                    (1): Linear(in_features=64, out_features=16, bias=False)
                    (2): SiLU()
                    (3): Linear(in_features=16, out_features=64, bias=False)
                    (4): Sigmoid()
                    (5): Rearrange('b c -> b c 1 1')
                  )
                )
                (5): Conv2d(64, 64, kernel_size=(1, 1), stride=(1, 1))
              )
              (dropsample): Dropsample()
            )
            (1): Rearrange('b d (x w1) (y w2) -> b x y w1 w2 d', w1=8, w2=8)
            (2): PreNormResidual(
              (norm): LayerNorm((64,), eps=1e-05, elementwise_affine=True)
              (fn): Attention(
                (to_qkv): Linear(in_features=64, out_features=192, bias=False)
                (attend): Sequential(
                  (0): Softmax(dim=-1)
                  (1): Dropout(p=0.0, inplace=False)
                )
                (to_out): Sequential(
                  (0): Linear(in_features=64, out_features=64, bias=False)
                  (1): Dropout(p=0.0, inplace=False)
                )
                (rel_pos_bias): Embedding(225, 4)
              )
            )
            (3): Rearrange('b x y w1 w2 d -> b d (x w1) (y w2)')
            (4): Conv_PreNormResidual(
              (norm): LayerNorm2d()
              (fn): Gated_Conv_FeedForward(
                (project_in): Conv2d(64, 128, kernel_size=(1, 1), stride=(1, 1), bias=False)
                (dwconv): Conv2d(128, 128, kernel_size=(3, 3), stride=(1, 1), padding=(1, 1), groups=128, bias=False)
                (project_out): Conv2d(64, 64, kernel_size=(1, 1), stride=(1, 1), bias=False)
              )
            )
            (5): Conv_PreNormResidual(
              (norm): LayerNorm2d()
              (fn): Channel_Attention(
                (qkv): Conv2d(64, 192, kernel_size=(1, 1), stride=(1, 1), bias=False)
                (qkv_dwconv): Conv2d(192, 192, kernel_size=(3, 3), stride=(1, 1), padding=(1, 1), groups=192, bias=False)
                (project_out): Conv2d(64, 64, kernel_size=(1, 1), stride=(1, 1), bias=False)
              )
            )
            (6): Conv_PreNormResidual(
              (norm): LayerNorm2d()
              (fn): Gated_Conv_FeedForward(
                (project_in): Conv2d(64, 128, kernel_size=(1, 1), stride=(1, 1), bias=False)
                (dwconv): Conv2d(128, 128, kernel_size=(3, 3), stride=(1, 1), padding=(1, 1), groups=128, bias=False)
                (project_out): Conv2d(64, 64, kernel_size=(1, 1), stride=(1, 1), bias=False)
              )
            )
            (7): Rearrange('b d (w1 x) (w2 y) -> b x y w1 w2 d', w1=8, w2=8)
            (8): PreNormResidual(
              (norm): LayerNorm((64,), eps=1e-05, elementwise_affine=True)
              (fn): Attention(
                (to_qkv): Linear(in_features=64, out_features=192, bias=False)
                (attend): Sequential(
                  (0): Softmax(dim=-1)
                  (1): Dropout(p=0.0, inplace=False)
                )
                (to_out): Sequential(
                  (0): Linear(in_features=64, out_features=64, bias=False)
                  (1): Dropout(p=0.0, inplace=False)
                )
                (rel_pos_bias): Embedding(225, 4)
              )
            )
            (9): Rearrange('b x y w1 w2 d -> b d (w1 x) (w2 y)')
            (10): Conv_PreNormResidual(
              (norm): LayerNorm2d()
              (fn): Gated_Conv_FeedForward(
                (project_in): Conv2d(64, 128, kernel_size=(1, 1), stride=(1, 1), bias=False)
                (dwconv): Conv2d(128, 128, kernel_size=(3, 3), stride=(1, 1), padding=(1, 1), groups=128, bias=False)
                (project_out): Conv2d(64, 64, kernel_size=(1, 1), stride=(1, 1), bias=False)
              )
            )
            (11): Conv_PreNormResidual(
              (norm): LayerNorm2d()
              (fn): Channel_Attention_grid(
                (qkv): Conv2d(64, 192, kernel_size=(1, 1), stride=(1, 1), bias=False)
                (qkv_dwconv): Conv2d(192, 192, kernel_size=(3, 3), stride=(1, 1), padding=(1, 1), groups=192, bias=False)
                (project_out): Conv2d(64, 64, kernel_size=(1, 1), stride=(1, 1), bias=False)
              )
            )
            (12): Conv_PreNormResidual(
              (norm): LayerNorm2d()
              (fn): Gated_Conv_FeedForward(
                (project_in): Conv2d(64, 128, kernel_size=(1, 1), stride=(1, 1), bias=False)
                (dwconv): Conv2d(128, 128, kernel_size=(3, 3), stride=(1, 1), padding=(1, 1), groups=128, bias=False)
                (project_out): Conv2d(64, 64, kernel_size=(1, 1), stride=(1, 1), bias=False)
              )
            )
          )
        )
        (1): Conv2d(64, 64, kernel_size=(1, 1), stride=(1, 1))
      )
      (esa): ESA(
        (conv1): Conv2d(64, 16, kernel_size=(1, 1), stride=(1, 1))
        (conv_f): Conv2d(16, 16, kernel_size=(1, 1), stride=(1, 1))
        (conv2): Conv2d(16, 16, kernel_size=(3, 3), stride=(2, 2))
        (conv3): Conv2d(16, 16, kernel_size=(3, 3), stride=(1, 1), padding=(1, 1))
        (conv4): Conv2d(16, 64, kernel_size=(1, 1), stride=(1, 1))
        (sigmoid): Sigmoid()
        (relu): ReLU(inplace=True)
      )
    )
  )
  (input): Conv2d(3, 64, kernel_size=(3, 3), stride=(1, 1), padding=(1, 1))
  (input_aux): Inception_With_SE(
    (branch3x3): Conv2d(3, 16, kernel_size=(3, 3), stride=(1, 1), padding=(1, 1))
    (branch5x5): Conv2d(3, 16, kernel_size=(3, 3), stride=(1, 1), padding=(2, 2), dilation=(2, 2))
    (branch7x7): Conv2d(3, 16, kernel_size=(3, 3), stride=(1, 1), padding=(3, 3), dilation=(3, 3))
    (branch_pool): Conv2d(3, 16, kernel_size=(1, 1), stride=(1, 1))
    (sa_3x3): sa_layer(
      (avg_pool): AdaptiveAvgPool2d(output_size=1)
      (sigmoid): Sigmoid()
      (gn): GroupNorm(4, 4, eps=1e-05, affine=True)
    )
    (sa_5x5): sa_layer(
      (avg_pool): AdaptiveAvgPool2d(output_size=1)
      (sigmoid): Sigmoid()
      (gn): GroupNorm(4, 4, eps=1e-05, affine=True)
    )
    (sa_7x7): sa_layer(
      (avg_pool): AdaptiveAvgPool2d(output_size=1)
      (sigmoid): Sigmoid()
      (gn): GroupNorm(4, 4, eps=1e-05, affine=True)
    )
  )
  (output): Conv2d(64, 64, kernel_size=(3, 3), stride=(1, 1), padding=(1, 1))
  (up): Sequential(
    (0): Conv2d(64, 48, kernel_size=(3, 3), stride=(1, 1), padding=(1, 1))
    (1): PixelShuffle(upscale_factor=4)
  )
)
[44]-[2023-06-24 16:03:12]-[info] Model FLOPs: 3.155G
[45]-[2023-06-24 16:03:12]-[info] Model Params: 793.904K
[46]-[2023-06-24 16:04:41]-[logInfo]-epoch[1]-step[200] loss: 0.2180, l1: 0.0981, low l1: 0.0682, high l1: 0.0516
[47]-[2023-06-24 16:06:10]-[logInfo]-epoch[1]-step[400] loss: 0.1995, l1: 0.0905, low l1: 0.0573, high l1: 0.0517
…
